----------------------------------------------------------------
        Layer (type)               Output Shape         Param #
================================================================
   ConvTranspose2d-1            [-1, 256, 3, 3]         230,656
       BatchNorm2d-2            [-1, 256, 3, 3]             512
              ReLU-3            [-1, 256, 3, 3]               0
   ConvTranspose2d-4            [-1, 128, 6, 6]         524,416
       BatchNorm2d-5            [-1, 128, 6, 6]             256
              ReLU-6            [-1, 128, 6, 6]               0
   ConvTranspose2d-7           [-1, 64, 13, 13]          73,792
       BatchNorm2d-8           [-1, 64, 13, 13]             128
              ReLU-9           [-1, 64, 13, 13]               0
  ConvTranspose2d-10            [-1, 1, 28, 28]           1,025
             Tanh-11            [-1, 1, 28, 28]               0
================================================================
Total params: 830,785
Trainable params: 830,785
Non-trainable params: 0
----------------------------------------------------------------
Input size (MB): 0.00
Forward/backward pass size (MB): 0.42
Params size (MB): 3.17
Estimated Total Size (MB): 3.59
----------------------------------------------------------------
Generator(
  (gen): Sequential(
…
      (2): ReLU(inplace=True)
    )
    (2): Sequential(
      (0): ConvTranspose2d(128, 64, kernel_size=(3, 3), stride=(2, 2))
      (1): BatchNorm2d(64, eps=1e-05, momentum=0.1, affine=True, track_running_stats=True)
      (2): ReLU(inplace=True)
    )
    (3): Sequential(
      (0): ConvTranspose2d(64, 1, kernel_size=(4, 4), stride=(2, 2))
      (1): Tanh()
    )
  )
)
----------------------------------------------------------------
        Layer (type)               Output Shape         Param #
================================================================
            Conv2d-1           [-1, 64, 13, 13]           1,088
       BatchNorm2d-2           [-1, 64, 13, 13]             128
         LeakyReLU-3           [-1, 64, 13, 13]               0
            Conv2d-4            [-1, 128, 5, 5]         131,200
       BatchNorm2d-5            [-1, 128, 5, 5]             256
         LeakyReLU-6            [-1, 128, 5, 5]               0
            Conv2d-7              [-1, 1, 1, 1]           2,049
================================================================
Total params: 134,721
Trainable params: 134,721
Non-trainable params: 0
----------------------------------------------------------------
Input size (MB): 0.00
Forward/backward pass size (MB): 0.32
Params size (MB): 0.51
Estimated Total Size (MB): 0.84
----------------------------------------------------------------
Critic(
  (disc): Sequential(
…
